…
 = self.fc1(x)\n        x = self.fc2(x)\n        #x = self.softmax(x)\n        return x\n\nmodel = DNA_CNN()\nif torch.cuda.is_available():\n    model.cuda()\n\n# Loss and optimizer\ncriterion = nn.CrossEntropyLoss()\noptimizer = optim.Adam(model.parameters(), lr=0.001)\n\nfrom torchsummary import summary\nsummary(model, input_size=(4, 20))  # (Channels, Length)\n\n----------------------------------------------------------------\n        Layer (type)               Output Shape         Param #\n================================================================\n            Conv1d-1               [-1, 16, 20]             208\n              ReLU-2               [-1, 16, 20]               0\n         MaxPool1d-3               [-1, 16, 10]               0\n           Flatten-4                  [-1, 160]               0\n            Linear-5                   [-1, 64]          10,304\n            Linear-6                    [-1, 2]             130\n================================================================\nTotal params: 10,642\nTrainable params: 10,642\nNon-trainable params: 0\n----------------------------------------------------------------\nInput size (MB): 0.00\nForward/backward pass size (MB): 0.01\nParams size (MB): 0.04\nEstimated Total Size (MB): 0.05\n----------------------------------------------------------------",
    "crumbs": [
…
